…
              |  val L1 = 7.1193
Epoch  49 | train L1 = 4.8529
              |  val L1 = 3.3646
Saved checkpoint_20250716_000250.pt (18.7 min) 18.709990004698437
(jessi) bgn1003:~ $ python nhr_new998.py 
{'runid': '20250716_000626', 'num_nbrs': 100, 'num_nbrs_egnn': 9, 'learning_rate': [0.005], 'dataset': ('1000inputs/*.npz', 3.0080321285140563), 'epochs': 10, 'dim': 12, 'depth': 4, 'basis': 75, 'hidden_dim': 48, 'dropout': [0.01, 0.03], 'rbf cutoff': 20.0, 'loss': L1Loss(), 'params': 815852, 'architect': b'[StackedEGNN(\n  (blocks): ModuleList(\n    (0): EGNNBlock(\n      (egnn): EGNN_Network(\n        (token_emb): Embedding(118, 12)\n        (pos_emb): Embedding(1000, 12)\n        (layers): ModuleList(\n          (0-3): 4 x ModuleList(\n            (0): None\n            (1): EGNN(\n              (edge_mlp): Sequential(\n                (0): Linear(in_features=25, out_features=50, bias=True)\n                (1): Dropout(p=0.01, inplace=False)\n                (2): SiLU()\n                (3): Linear(in_features=50, out_features=16, bias=True)\n                (4): SiLU()\n              )\n              (node_norm): LayerNorm((12,), eps=1e-05, elementwise_affine=True)\n              (coors_norm): CoorsNorm()\n              (node_mlp): Sequential(\n                (0): Linear(in_features=28, out_features=24, bias=True)\n                (1): Dropout(p=0.01, inplace=False)\n                (2): SiLU()\n                (3): Linear(in_features=24, out_features=12, bias=True)\n              )\n              (coors_mlp): Sequential(\n                (0): Linear(in_features=16, out_features=64, bias=True)\n                (1): Dropout(p=0.01, inplace=False)\n                (2): SiLU()\n                (3): Linear(in_features=64, out_features=1, bias=True)\n              )\n            )\n          )\n        )\n      )\n      (norm1): LayerNorm((12,), eps=1e-05, elementwise_affine=True)\n      (ffn): Sequential(\n        (0): Linear(in_features=12, out_features=576, bias=True)\n        (1): PReLU(num_parameters=1)\n        (2): Linear(in_features=576, out_features=12, bias=True)\n      )\n      (norm2): LayerNorm((12,), eps=1e-05, elementwise_affine=True)\n    )\n  )\n), EGNN(\n  (edge_mlp): Sequential(\n    (0): Linear(in_features=3, out_features=6, bias=True)\n    (1): Identity()\n    (2): SiLU()\n    (3): Linear(in_features=6, out_features=16, bias=True)\n    (4): SiLU()\n  )\n  (node_norm): Identity()\n  (coors_norm): Identity()\n  (node_mlp): Sequential(\n    (0): Linear(in_features=17, out_features=2, bias=True)\n    (1): Identity()\n    (2): SiLU()\n    (3): Linear(in_features=2, out_features=1, bias=True)\n  )\n), Conv1d(100, 1, kernel_size=(87,), stride=(1,)), LearnableRBF(), AttentionBlock(\n  (encoding): PositionalEncoding(\n    (dropout): Dropout(p=0.03, inplace=False)\n  )\n  (attn): MultiheadAttention(\n    (out_proj): NonDynamicallyQuantizableLinear(in_features=87, out_features=87, bias=True)\n  )\n  (norm1): LayerNorm((87,), eps=1e-05, elementwise_affine=True)\n  (ffn): Sequential(\n    (0): Linear(in_features=87, out_features=4176, bias=True)\n    (1): PReLU(num_parameters=1)\n    (2): Linear(in_features=4176, out_features=87, bias=True)\n  )\n  (norm2): LayerNorm((87,), eps=1e-05, elementwise_affine=True)\n), Linear(in_features=1, out_features=1, bias=True)]'}
Traceback (most recent call last):
  File "/home/becjessi/nhr_new998.py", line 450, in <module>
    scaler.scale(loss).backward()
  File "/home/becjessi/.conda/envs/jessi/lib/python3.10/site-packages/torch/_tensor.py", line 487, in backward
    torch.autograd.backward(
  File "/home/becjessi/.conda/envs/jessi/lib/python3.10/site-packages/torch/autograd/__init__.py", line 200, in backward
…
